anomaly.tflite (tflite, 4968 bytes, 6 tensors)

arith.constant f4 [2, 16]
000000 40 ae df bd c2 a9 2c be 91 a5 90 be 6e ef ab be
       -0.109219074 -0.16861632 -0.28251317 -0.33581108
000010 d5 cc f2 3c 2a 0e 00 b9 b5 f1 c0 3e a7 82 64 3e
       0.029638687 -0.00012212308 0.37684408 0.22315465
000020 49 ca 08 bf 26 7b c6 3d a0 36 11 bf 89 25 15 3e
       -0.5343366 0.096914575 -0.56723976 0.145651
000030 4e 32 9f 3e f1 6b 78 3d e4 d4 5a bc e8 be 06 3d
       0.31093067 0.060649816 -0.013356421 0.032896906
000040 10 6c 42 3d 20 f0 35 3d 30 db d6 be 4b bc 78 be
       0.047466338 0.044418454 -0.41964102 -0.24290578
000050 7a 57 fb 3e e0 2d bc be b2 a6 b6 3e 73 43 e3 be
       0.49090177 -0.3675375 0.35674053 -0.44387397
000060 9e f3 c3 be 22 db 9c be a4 77 a8 3a 07 4e c8 3e
       -0.38271803 -0.30635935 0.0012853038 0.3912203
000070 80 d4 95 bc 07 02 c6 3e c7 2b fc bb 34 ec af 3e
       -0.018289804 0.38673422 -0.0076956484 0.34359896

arith.constant1 f4 [16, 32]
000000 a6 47 59 3e 30 10 04 3e 7c 96 c5 bd 2c 58 8e be
       0.21218738 0.128968 -0.09647843 -0.27801645
000010 f2 a3 ab be dd ed a6 be 38 ef ad be 9e 07 36 3e
       -0.33523518 -0.3260335 -0.33971572 0.17776343
000020 64 76 f9 bd ca 59 3c 3e 84 f1 47 be ce 49 a6 be
       -0.12180784 0.18393627 -0.19525725 -0.32478184
000030 8b 43 86 be b0 91 68 bd c4 bf da bd bc 30 6a be
       -0.26223406 -0.056779563 -0.10681108 -0.22870153
000040 84 44 d0 bd a4 44 bb 3d 06 21 34 3e 52 7b 7c 3e
       -0.10169318 0.091439515 0.17590722 0.24656418
000050 1f 72 85 3e 94 cf 9d bd ef e6 90 3e 72 8a ad be
       0.2606363 -0.07705608 0.28301188 -0.33894688
000060 2a d7 9d be 94 c8 a4 3d 46 4a 35 3e a4 a3 a8 be
       -0.3082822 0.0804607 0.17704114 -0.32937348
000070 b4 23 d2 bd 48 90 11 3e 64 78 8b 3d c0 68 e5 3b
       -0.10260716 0.14215195 0.06810072 0.0070010126
000080 58 40 2f 3d ed 3f a9 3e 4e 46 9d be 56 65 64 3e
       0.042785972 0.33056584 -0.307177 0.22304282
000090 72 8d 3d be b9 10 9b 3e cd e3 97 3e c0 e0 89 3b
       -0.18510988 0.30286196 0.29665986 0.0042077005
0000a0 d8 8a 15 bd 7c f6 ac be d0 92 4f 3d f4 20 f8 3d
       -0.036509365 -0.33781803 0.05067712 0.1211566
0000b0 73 10 a5 3e 80 56 33 bd 08 30 e9 bd f4 9c 8c 3d
       0.32239112 -0.043783665 -0.11386114 0.06865874
0000c0 68 30 50 3d 04 0f ee bd c0 5f 10 bc 60 d1 18 bc
       0.050827414 -0.11623958 -0.008811891 -0.009327263
0000d0 ee 64 2b 3e 00 df f9 3c 44 2e 9d 3d 7a a8 48 3e
       0.1673772 0.030501842 0.0767484 0.19595519
0000e0 48 2d db 3d bb 44 9c 3e 11 15 8c 3e 2d b7 04 be
       0.10701996 0.30521187 0.27359822 -0.12960501
0000f0 2e 30 7b be 95 c1 aa be 57 dc b3 be 08 ba 63 bd
       -0.24530098 -0.33350816 -0.35129043 -0.055597335
000100 68 ec 54 be 4c 77 d0 bd 56 85 86 be 7f d0 af 3e
       -0.20793307 -0.10179004 -0.26273602 0.34338757
000110 ce 9a e9 bd cc 15 98 be 4b 55 68 be 74 ec 96 3d
       -0.1140648 -0.2970413 -0.22688787 0.073693186
000120 67 0d a4 be 00 80 8e bc d1 80 9b 3e f2 d7 72 be
       -0.32041475 -0.01739502 0.30371717 -0.23715189
000130 2e fb 17 be 0a 19 46 3e 30 1a 0e 3e 64 64 90 be
       -0.14841911 0.19345489 0.13877177 -0.28201592
000140 7d 8a 16 be 61 06 b2 be 27 50 85 3e a4 b7 c0 bd
       -0.14701267 -0.34770492 0.26037714 -0.09410027
000150 c3 4c 8e 3e 6e 1b 87 be 77 2a a5 3e c4 59 77 be
       0.2779294 -0.26388115 0.3225896 -0.24155337
000160 8f 8e 9e 3e fa 08 31 3e 70 65 90 3c cc af 84 be
       0.3096814 0.1728858 0.017626494 -0.25915372
000170 33 86 a9 3e 00 c4 db 3a 75 d1 82 3e f4 99 c1 3d
       0.33110198 0.0016766787 0.25550428 0.09453192
000180 c0 99 40 be 91 80 6a be ed 62 4d 3e 2a c5 b0 bc
       -0.18808651 -0.22900607 0.20057268 -0.02157839
000190 2a c2 f5 3c 64 71 af bd 28 89 32 bd 46 d9 5d 3e
       0.029999811 -0.085665494 -0.043587834 0.21664914
0001a0 fa e2 49 be 5b 5d 1d be 3b c0 ad 3d d2 e6 b0 be
       -0.19715491 -0.15367644 0.08483931 -0.34551102
0001b0 4a fc f4 3d b5 9e 88 3e 35 1f 8d bb a8 c0 1a 3e
       0.11962183 0.26683584 -0.0043066987 0.15112555
0001c0 f3 22 a8 3e a2 1e 3c 3e 80 8c 8d bb 1e 0f 8a be
       0.32839164 0.1837106 -0.0043197274 -0.26964658
0001d0 30 3f 66 bd 6c 94 e3 3d ae 19 67 be f8 53 35 be
       -0.056212604 0.111122936 -0.2256839 -0.17707813
0001e0 4f 8a 14 3e ed 90 6d be 22 e9 7e 3e 0c 1f 5b be
       0.14505886 -0.23199816 0.2489362 -0.21398562
0001f0 41 6c 31 be e6 4e 3a bd 7b 7c ad 3e 6e 3c 92 3e
       -0.17326452 -0.0454854 0.33884034 0.2856173
000200 74 05 43 3e 0f fe 66 3d ca 86 8e 3e f8 06 8d 3e
       0.19045049 0.056394633 0.2783721 0.2754438
000210 81 87 88 be d7 45 4c be f4 51 71 be 3f 84 25 be
       -0.2666588 -0.19948517 -0.23566419 -0.16163729
000220 34 17 99 3e 46 47 81 3e 7b f1 3d be 8a b5 a4 be
       0.29900515 0.2524969 -0.18549149 -0.32169753
000230 95 9c 7b 3e 58 d7 24 3d ff 53 7f be a4 a9 8e be
       0.2457145 0.04024443 -0.24934386 -0.278638
000240 b2 97 17 3e f4 8b 00 be 86 57 4c 3e 1c 9e a4 3e
       0.14803961 -0.12553388 0.19955263 0.32151878
000250 2d 1a 58 be 20 0e c2 3c b7 55 9b 3e 20 1f 4b bd
       -0.21103735 0.023688376 0.30338833 -0.04959023
000260 c4 dc 9e 3e 1a de 37 be f7 23 97 3e 62 49 0b be
       0.31027806 -0.17955819 0.29519626 -0.13602212
000270 89 6f 99 3e 19 64 59 3e 9b c0 29 be 5a df 6c 3e
       0.29967907 0.2122959 -0.1657738 0.23132077
000280 49 05 92 be 27 df 3f be b9 09 53 3e ed 01 27 be
       -0.28519657 -0.1873747 0.20609178 -0.16309328
000290 4c 80 6c 3e e1 ef 08 3e f4 cd 8e bd 56 9d 6a 3e
       0.23095816 0.13372757 -0.06972876 0.22911581
0002a0 b7 f2 b4 3d e0 2c 91 be 07 6e 30 3e 2f 4d 80 3c
       0.08835357 -0.2835455 0.17229472 0.015661804
0002b0 75 b6 5f be 8a 5f 72 be 6e dc f6 b9 6f 39 92 3d
       -0.21846946 -0.23669258 -0.0004708501 0.07139861
0002c0 5f 61 8d be bf da a3 be 55 ad a6 be d4 57 f4 3d
       -0.2761335 -0.32002828 -0.32554117 0.119308144
0002d0 ae 3d 66 3e 98 28 17 be 30 7f f8 3c 45 dd b3 be
       0.22484466 -0.14761579 0.030334085 -0.35129753
0002e0 a0 59 08 be b3 ba 57 3e aa 24 7b 3e 09 62 9f 3e
       -0.13315439 0.21067314 0.24525705 0.31129482
0002f0 98 f2 a3 bd 6a 64 8d be 39 f8 9a 3e a9 74 46 be
       -0.080052555 -0.27615672 0.30267504 -0.1938044
000300 54 0f 18 3e ce e8 43 3e 48 f7 a0 be c2 c2 a1 3e
       0.14849597 0.19131777 -0.3143866 0.315939
000310 d1 84 48 be a1 e9 0c 3b 88 f0 34 3d 90 1c d9 bc
       -0.19581915 0.0021501558 0.0441747 -0.026502877
000320 52 72 94 bd 0f 7d 8a 3e ef 6d 8f 3e 57 6d 8e bd
       -0.07248367 0.27048537 0.2801356 -0.06954449
000330 ae 8d b2 3e b2 d8 a2 be ee 3c 1d be 68 3b a5 bd
       0.34873718 -0.3180595 -0.15355274 -0.080679715
000340 88 59 1b 3d e2 e1 8a be f0 a7 98 bd 48 57 89 3e
       0.03792718 -0.2712546 -0.074539065 0.26824403
000350 12 45 48 3e 27 c3 7e be d3 ff 38 be 98 3d f3 3d
       0.19557598 -0.24879132 -0.18066339 0.118769825
000360 29 3b ae bd 49 f6 e2 bc f0 47 d6 3c 17 fa 29 be
       -0.08507378 -0.027705329 0.02615735 -0.16599308
000370 94 f3 9a 3d 70 06 20 bb 47 5a 6a 3e bd 69 1a be
       0.0756599 -0.00244179 0.22886 -0.15079398
000380 b5 b0 7c bd 2c 2a 8c 3e 21 17 81 3e 1e a5 c8 3d
       -0.06169196 0.27375925 0.25212958 0.097971186
000390 ac 9d e6 3d 31 a7 32 be 2b c7 a3 be f8 56 8d 3d
       0.11260542 -0.17446591 -0.3198789 0.069013536
0003a0 79 4a 03 3e 35 64 cd bd 76 4e 47 be d5 2f ca 3d
       0.12821378 -0.100288786 -0.19463524 0.098724045
0003b0 74 2e 6b 3e 91 bf ab 3e e0 cd a6 3e be 1c e5 bd
       0.22966939 0.3354459 0.32578945 -0.11187123
0003c0 22 8f a4 be c2 7a 05 3e aa f1 71 3e 9d 6c e5 3d
       -0.32140452 0.1303511 0.23627344 0.11202357
0003d0 50 55 90 bc 98 9d 25 bd bf 62 a5 be 74 89 15 3e
       -0.017618805 -0.040433496 -0.323019 0.14603215
0003e0 5e ae 8d 3e 07 2b a7 3e 78 32 c7 3d 24 66 94 be
       0.27672094 0.32650015 0.09726423 -0.28984177
0003f0 97 be 97 3e 12 f8 00 be e2 a1 a4 3d 0f bf 12 3e
       0.29637596 -0.12594631 0.08038689 0.14330696

arith.constant2 f4 [2]
000000 d2 f6 49 3d d3 f6 49 bd
       0.04930765 -0.049307656

sequential_1/dense_1_2/Add/ReadVariableOp f4 [16]
000000 00 00 00 00 00 00 00 00 00 00 00 00 9f ae 3d bd
       0.0 0.0 0.0 -0.04630911
000010 51 aa 49 bd 1d e6 ab bc bf 3f f2 3c b4 61 47 3d
       -0.049234692 -0.02098375 0.029571412 0.04867716
000020 00 00 00 00 ac bf 41 3d 93 ab d6 3d c8 20 16 be
       0.0 0.047301933 0.10481944 -0.14660943
000030 00 00 00 00 42 0d 4f bd c8 8d 98 bd cc 2c e7 bc
       0.0 -0.050549753 -0.074489176 -0.028219603

sequential_1/dense_1/Add/ReadVariableOp f4 [32]
000000 b6 1e 98 bc a7 aa cb 3a ab e6 05 be da db a3 bd
       -0.018569332 0.0015538529 -0.13076274 -0.08000918
000010 a3 ae 7f 3d 18 26 df 3d 00 00 00 00 00 00 00 00
       0.062422406 0.10895938 0.0 0.0
000020 e6 78 e4 bc ef 0c 82 bd 2e d0 fc bc b0 92 ab 3d
       -0.02788968 -0.06350123 -0.030860987 0.08377588
000030 12 f4 90 bd 00 00 00 00 9f dd f2 3d 62 01 b5 bd
       -0.07077803 0.0 0.11858677 -0.088381544
000040 00 00 00 00 00 00 00 00 00 00 00 00 23 3d 36 be
       0.0 0.0 0.0 -0.1779676
000050 00 00 00 00 00 00 00 00 00 00 00 00 00 00 00 00
       0.0 0.0 0.0 0.0
000060 6a b8 38 3e ea 6c 31 3d 00 00 00 00 00 00 00 00
       0.18039098 0.04331676 0.0 0.0
000070 00 00 00 00 e4 89 79 bd 30 78 ec 3d 0c 52 bc 3c
       0.0 -0.06092252 0.115463614 0.022988342

sequential_1/dense_1/MatMul f4 [32, 4]
000000 c2 85 5b 3e 11 47 83 3d e8 92 c0 3d 0e f8 64 be
       0.21437743 0.06410039 0.0940302 -0.2236025
000010 7d 25 cb 3c c9 74 c2 be 9a e8 2a 3d 5c f8 b7 be
       0.02479815 -0.37979725 0.041725732 -0.3593167
000020 ee 66 bb 3d ac 7d 1a be 0e c6 b7 3e 07 27 d8 be
       0.09150492 -0.15087003 0.3589329 -0.42217276
000030 c7 1d 98 bd 8f 13 9c bd 36 71 a4 3e 03 4a c1 be
       -0.074275546 -0.07620918 0.32117623 -0.3775178
000040 b8 4f ac 3e c7 55 50 3e 41 00 e0 bd 9d 72 20 bd
       0.3365457 0.20345221 -0.109375484 -0.039171804
000050 cb 90 b4 3e 9b bd b1 be 40 6d 88 be 16 07 55 3c
       0.35266718 -0.3471497 -0.2664585 0.013002178
000060 a8 70 22 be 98 a9 02 3e 84 7e fe bd 2a 07 a2 3e
       -0.15863287 0.12760007 -0.12426475 0.3164609
000070 a6 61 ad be d2 6b 88 3e a9 13 32 be f8 36 1f 3e
       -0.33863562 0.2664476 -0.17390312 0.15548313
000080 7b fa 95 bd 3f 60 13 3e eb 46 c3 3c 7c c5 0f 3e
       -0.07323166 0.14392184 0.023837527 0.14040178
000090 05 7b bd 3e 07 a8 37 bd 84 ef 47 be 3c b6 83 3d
       0.3700792 -0.044837978 -0.19524962 0.06431243
0000a0 e7 e7 b2 3e a1 97 b9 bd 27 07 56 bd 3d db 8a be
       0.34942552 -0.09062124 -0.052252915 -0.2712039
0000b0 cf 5a 7c be 43 57 89 3e a0 84 e0 3e 8a 5f 8d 3d
       -0.24644016 0.26824388 0.43851185 0.06902988
0000c0 6e 38 18 3d 61 47 28 3e a5 22 c0 3e 09 5d c8 3c
       0.03716319 0.16433479 0.37526432 0.024458425
0000d0 10 00 e4 bc d0 d7 f3 3d c0 0d 4d 3c 89 d2 74 be
       -0.027832061 0.11906397 0.012515485 -0.23908438
0000e0 3a 7e 10 3e c4 68 c1 be 82 35 78 bd eb 82 ce bc
       0.14110652 -0.37775242 -0.060597904 -0.02520891
0000f0 ba 9b ea 3d ca 14 5e 3d 1d 28 8b bd 3d 11 70 be
       0.11455484 0.054219045 -0.067947604 -0.23444076
000100 0c 7e 90 bd f8 67 b4 be d5 36 37 be ed 73 aa be
       -0.070552915 -0.35235572 -0.1789201 -0.3329157
000110 d8 12 23 bd 24 f2 08 3e e0 cf 11 be 60 1d 49 bc
       -0.039812893 0.1337362 -0.14239454 -0.01227507
000120 22 2a c7 be 80 e5 d6 bc a8 79 29 bd e7 ad 56 be
       -0.38899332 -0.026232481 -0.041375786 -0.20964776
000130 11 eb 05 be b4 0b 08 be 3c c7 9c 3e f9 9b b8 be
       -0.13077952 -0.13285714 0.30620754 -0.36056498
000140 50 35 f0 bd cc a4 a5 bd b8 c1 42 bd b4 df c2 3e
       -0.117289186 -0.08088073 -0.047548026 0.38061297
000150 e2 4b 89 be 68 27 3d 3e a0 8c 17 3c be ac 83 3e
       -0.26815706 0.18472064 0.009249836 0.2571773
000160 1e cc 30 be 8c e4 34 3e 48 40 96 bd dc 91 a8 be
       -0.17265365 0.17665309 -0.073364794 -0.32923782
000170 e2 30 99 be ac 76 cd 3e 4d f9 c3 be 50 d2 88 3e
       -0.29920107 0.40129602 -0.3827614 0.26722956
000180 4c 44 5e 3e 56 c6 8e be aa 93 be be 95 1e cc 3e
       0.2170574 -0.27885693 -0.37222034 0.39867082
000190 1f d3 54 be 1b f2 f8 3e 74 79 f2 3d 82 03 b7 3e
       -0.20783661 0.48622212 0.118395716 0.35744864
0001a0 c8 b2 a0 3d a0 cb 75 3d 50 24 a7 be 5a df ad be
       0.078466 0.060008645 -0.32644892 -0.33959466
0001b0 20 45 ea 3c 58 43 50 3e c0 99 6f be f0 c2 10 bd
       0.028597414 0.2033819 -0.23398495 -0.035342157
0001c0 e6 20 33 be 18 8c c6 3d 35 7d 6c be d6 2a a7 3e
       -0.17493019 0.096946895 -0.23094638 0.3264987
0001d0 5d cc 71 3d 9e a8 a3 be 54 c6 df 3d a9 ad 80 3c
       0.059032787 -0.31964582 0.109265 0.015707808
0001e0 46 5e 8e 3e c2 b1 26 be a0 32 a4 be 64 9f 89 3e
       0.278063 -0.16278747 -0.32069874 0.26879418
0001f0 ac d2 1b bc bc 5d 96 3e c6 5e 8b 3e c9 21 ef bd
       -0.009510677 0.2936839 0.27220744 -0.11676366
