tkph.tflite (tflite, 11084 bytes, 5 tensors)

arith.constant f4 [1, 32]
-0.17180842 -0.26748377 -0.2988551 0.3089701 -0.20073307 0.3063693 0.042978942 0.4279134
-0.06595923 -0.31184235 0.31822062 -0.10502377 -0.02675113 -0.31906587 -0.3428074 -0.101233914
0.26231426 0.3773557 0.25954998 -0.040061146 -0.3610592 -0.27225986 -0.009155555 0.28486663
-0.30261698 -0.14220157 0.10624858 -0.3615364 0.031730145 -0.09545252 0.021868318 0.24593061
00000000: 8cee 2fbe a2f3 88be 8903 99be 5431 9e3e
00000010: f88c 4dbe 70dc 9c3e b00a 303d 7717 db3e
00000020: a215 87bd cda9 9fbe d0ed a23e b416 d7bd
00000030: 3025 dbbc 9a5c a3be 7484 afbe ba53 cfbd
00000040: 0e4e 863e c434 c13e bce3 843e 2817 24bd
00000050: c0dc b8be a565 8bbe 2e01 16bc 0ada 913e
00000060: 9df0 9abe 4a9d 11be db98 d93d 4d1b b9be
00000070: 78f7 013d 9c7c c3bd 3025 b33c 3cd5 7b3e

arith.constant1 f4 [32, 64]
-0.07892126 -0.1835984 -0.023278952 0.06756085 0.1835323 -0.24235713 -0.17277122 -0.09220612
-0.011881471 -0.1133064 -0.12365192 0.06982809 -0.04344225 -0.09583217 -0.0927642 -0.15653479
0.13850665 -0.025130272 -0.15041608 0.20761871 -0.17399067 -0.12110597 -0.047323465 -0.004202664
-0.21524817 -0.12513125 -0.027098715 -0.15780896 -0.2478723 -0.22893715 -0.103408635 0.18320179
-0.15885556 -0.19896919 -0.14094335 -0.08645743 0.057647526 0.016537368 0.017534494 0.014969826
-0.014129758 -0.18576437 -0.042379975 -0.122202694 -0.072812796 -0.06087905 -0.1923027 -0.052320063
0.02983594 0.24909258 0.045841753 -0.24214572 0.064876616 -0.03432542 -0.14298838 -0.089132965
0.009270191 0.01893264 0.08797127 0.13276023 -0.24796337 0.1288243 -0.17978853 -0.076541126
0.16718757 -0.1896534 0.19246393 0.17730445 -0.039543808 -0.061725497 -0.15519279 -0.14323843
-0.08837825 -0.09266877 -0.090563774 -0.21691358 -0.1386466 -0.0772419 -0.08622742 0.060425103
-0.2135219 -0.2122981 0.117370546 0.022570074 0.13894993 0.23711503 0.1445356 -0.23117065
-0.20216441 0.24075598 -0.21719623 -0.21830535 0.0075606704 -0.17353952 -0.060661077 0.14814079
-0.0033613443 0.19713193 -0.16580021 -0.24668175 -0.2045964 0.18687522 -0.17860669 -0.15855044
0.12812626 0.08079952 0.17094564 0.0783571 0.0312618 -0.14884019 -0.21046668 -0.05564505
0.1792404 0.17679352 0.24925238 0.023849428 -0.12018263 -0.21296239 0.10538536 -0.22221571
0.0061695576 -0.15997434 -0.03963405 0.100790024 0.17110056 -0.17670482 0.23009288 -0.13645
0.0064533213 0.08809888 -0.11679608 -0.13438073 0.14917101 0.045726962 -0.09721112 0.22408861
0.18126829 -0.27815038 0.083785534 -0.1387409 -0.24445146 0.1205377 -0.22601418 -0.23359996
-0.072457306 0.102512784 0.056625187 -0.25811127 -0.07011274 0.17380266 -0.1248284 -0.2152531
-0.08691394 -0.086334825 -0.04475093 0.16584551 0.16734469 -0.26929402 0.18039048 0.2169143
-0.26830485 0.21663159 -0.023455868 -0.24420865 0.066211686 -0.19108503 0.070537016 -0.0109842075
0.24791396 -0.24567163 0.029300265 0.026103973 -0.09739071 0.18837023 -0.21559453 0.18276379
-0.041359298 0.17228246 0.19753133 0.08892208 0.05166161 0.19280744 -0.26365414 -0.008796811
0.08773478 -0.22153264 0.12170771 -0.24167977 -0.06683996 -0.16643941 -0.2269052 0.22756523
-0.021163106 -0.16928935 -0.21394658 0.21559566 -0.23110026 -0.24760586 -0.060388327 0.121834695
-0.10517013 -0.08543408 0.01140517 -0.14324725 0.06248486 0.11408365 -0.1787504 -0.053858638
-0.021861374 0.031568885 0.05066073 -0.014244378 -0.22995955 -0.14842701 0.23089051 -0.14569175
0.19983459 0.19147742 -0.08661932 -0.13895822 0.23214167 -0.032681406 0.22533977 -0.06381464
-0.06456673 -0.027458012 0.12536174 0.24971312 0.004666209 0.14543688 -0.053022087 -0.10287428
0.1189599 -0.19662803 -0.050159335 0.17183769 -0.18609685 -0.02765572 -0.08672953 -0.21730834
-0.15142787 -0.11183214 -0.06613451 -0.17127603 0.22760814 0.04937184 -0.1836868 -0.21463525
0.15404695 0.008292437 -0.07580727 0.19460726 -0.079838514 0.0068953037 -0.018336773 0.13013119
00000000: 78a1 a1bd 3801 3cbe 80b3 bebc 585d 8a3d
00000010: e4ef 3b3e 782c 78be f0ea 30be 90d6 bcbd
00000020: 80aa 42bc 300d e8bd 383d fdbd 0802 8f3d
00000030: 80f0 31bd a843 c4bd 28fb bdbd a84a 20be
00000040: b0d4 0d3e 00de cdbc ac06 1abe 009a 543e
00000050: 9c2a 32be 6806 f8bd 40d6 41bd 80b6 89bb
00000060: 046a 5cbe 6822 00be 20fe ddbc ac98 21be
00000070: 3cd2 7dbe 806e 6abe e8c7 d3bd 4099 3b3e
00000080: 08ab 22be 94be 4bbe 7453 10be 9810 b1bd
00000090: d01f 6c3d 6079 873c 80a4 8f3c 0044 753c
000000a0: 8080 67bc 0439 3ebe a096 2dbd 6845 fabd
000000b0: e01e 95bd 505c 79bd 00eb 44be 904d 56bd
000000c0: 806a f43c 2012 7f3e 90c4 3b3d 0cf5 77be
000000d0: 08de 843d d098 0cbd 8c6b 12be 588b b6bd
000000e0: 00e2 173c a018 9b3c 482a b43d 4cf2 073e
000000f0: 1cea 7dbe 84ea 033e 7c1a 38be 98c1 9cbd
00000100: 3833 2b3e 8034 42be 4415 453e 4c8f 353e
00000110: b0f8 21bd e0d3 7cbd dcea 1ebe 18ad 12be
00000120: a8ff b4bd 20c9 bdbd 8079 b9bd 981e 5ebe
00000130: 60f9 0dbe 0031 9ebd 0098 b0bd 5080 773d
00000140: 7ca5 5abe ac64 59be f85f f03d e0e4 b83c
00000150: e448 0e3e 48ce 723e 2401 143e 00b8 6cbe
00000160: 3004 4fbe bc88 763e b068 5ebe 708b 5fbe
00000170: 80bf f73b 58b4 31be c077 78bd 38b2 173e
00000180: 004a 5cbb f4dc 493e 88c7 29be 249a 7cbe
00000190: b881 51be 385c 3f3e ace4 36be 0c5b 22be
000001a0: 8833 033e 387a a53d 600c 2f3e b079 a03d
000001b0: 600c 003d 9069 18be 9484 57be 10ec 63bd
000001c0: cc8a 373e 5c09 353e 043c 7f3e e05f c33c
000001d0: 5022 f6bd d012 5abe 48d4 d73d 848c 63be
000001e0: 002a ca3b 50d0 23be 5057 22bd 006b ce3d
000001f0: fc34 2f3e 1cf2 34be 789d 6b3e 8cb9 0bbe
00000200: 6276 d33b 306d b43d c832 efbd 1a9b 09be
00000210: 49c0 183e 324c 3b3d a016 c7bd 7c77 653e
00000220: 659e 393e ba69 8ebe c097 ab3d 1812 0ebe
00000230: 7c51 7abe 78dc f63d 4370 67be d434 6fbe
00000240: 7f64 94bd 39f2 d13d d0ef 673d 2927 84be
00000250: 4597 8fbd 53f9 313e 08a6 ffbd 4f6b 5cbe
00000260: f0ff b1bd 50d0 b0bd c04c 37bd 68d3 293e
00000270: 685c 2b3e e8e0 89be 48b8 383e c81e 5e3e
00000280: 415f 89be acd4 5d3e 8526 c0bc d511 7abe
00000290: fe99 873d cbab 43be b675 903d 1bf7 33bc
000002a0: 28dd 7d3e 5891 7bbe 1c07 f03c 00d8 d53c
000002b0: c874 c7bd 20e4 403e d0c4 5cbe 6e26 3b3e
000002c0: 5e68 29bd d06a 303e a745 4a3e c81c b63d
000002d0: 209b 533d 506f 453e adfd 86be 8020 10bc
000002e0: 4bae b33d 74d9 62be e441 f93d e77a 77be
000002f0: 64e3 88bd 186f 2abe d659 68be dc06 693e
00000300: 405e adbc 305a 2dbe d014 5bbe 1cc5 5c3e
00000310: 8ca5 6cbe 648c 7dbe c059 77bd 7884 f93d
00000320: 7063 d7bd 10f8 aebd c0dc 3a3c 68af 12be
00000330: 20f0 7f3d b0a4 e93d 580a 37be e09a 5cbd
00000340: a016 b3bc 604e 013d a081 4f3d 4061 69bc
00000350: 847a 6bbe 40fd 17be 906e 6c3e 3830 15be
00000360: 70a1 4c3e a812 443e 7865 b1bd 104b 0ebe
00000370: 8cb6 6d3e f0dc 05bd 78bf 663e 40b1 82bd
00000380: 903b 84bd a0ef e0bc d45e 003e ccb4 7f3e
00000390: 00e7 983b 68ed 143e b02d 59bd c0af d2bd
000003a0: 40a1 f33d dc58 49be e073 4dbd 38f6 2f3e
000003b0: 2c90 3ebe 408e e2bc 409f b1bd 1486 5ebe
000003c0: e80f 1bbe 4008 e5bd 8871 87bd fc62 2fbe
000003d0: 1c12 693e 203a 4a3d 6418 3cbe 58c9 5bbe
000003e0: 7cbe 1d3e 00dd 073c d840 9bbd 2047 473e
000003f0: 6082 a3bd 00f2 e13b 0037 96bc 1c41 053e

sequential_1/dense_1_2/Add/ReadVariableOp f4 [32]
0.0 0.0 -0.02942667 0.0 -0.028201725 0.18157181 0.0 0.17997903
-0.14928512 -0.027448095 0.18130194 0.0 0.0 0.0 0.0 -0.030430065
0.18292594 0.1801696 0.18287036 0.0 -0.028219175 -0.011537375 -0.013539353 0.18160582
-0.026117617 0.0 -0.025645941 -0.020777361 0.0 0.0 0.0 0.0
00000000: 0000 0000 0000 0000 3310 f1bc 0000 0000
00000010: 4e07 e7bc f6ed 393e 0000 0000 6c4c 383e
00000020: 33de 18be d4da e0bc 37a7 393e 0000 0000
00000030: 0000 0000 0000 0000 0000 0000 7948 f9bc
00000040: f050 3b3e 617e 383e 5e42 3b3e 0000 0000
00000050: e62b e7bc 4207 3dbc 2ad4 5dbc e0f6 393e
00000060: 9df4 d5bc 0000 0000 7017 d2bc 4935 aabc
00000070: 0000 0000 0000 0000 0000 0000 0000 0000

sequential_1/dense_1/Add/ReadVariableOp f4 [64]
0.23100822 0.0 0.0 0.19939788 0.20703444 0.2089386 0.0 0.0
-0.08174751 0.1294443 0.17461449 0.0 0.0 0.0 0.17135026 0.0
0.18243702 0.1369987 0.0 0.124846935 0.19340716 0.16667873 0.0 0.179136
0.0 0.0 0.0 0.17234784 0.0 0.20895009 -0.117471606 0.14140004
0.17370659 0.2223046 0.20443028 0.028451953 0.092366695 0.19376348 0.20880586 0.19447918
0.0 0.0 -0.028071543 0.0 0.19668521 0.0 0.0 0.20116925
0.18344814 0.0 -0.021856135 0.0 0.0 0.0 0.14113827 0.0
-0.111542955 -0.12879199 0.20041773 0.18869595 0.22278477 0.21012682 0.14028017 0.0
00000000: 6b8d 6c3e 0000 0000 0000 0000 f52e 4c3e
00000010: d600 543e 00f4 553e 0000 0000 0000 0000
00000020: 3d6b a7bd 0c8d 043e 24ce 323e 0000 0000
00000030: 0000 0000 0000 0000 7176 2f3e 0000 0000
00000040: c5d0 3a3e 6349 0c3e 0000 0000 c0af ff3d
00000050: 870c 463e d4ad 2a3e 0000 0000 6d6f 373e
00000060: 0000 0000 0000 0000 0000 0000 f47b 303e
00000070: 0000 0000 03f7 553e f494 f0bd 2ccb 103e
00000080: 24e0 313e d1a3 633e 2c56 513e 1214 e93c
00000090: c02a bd3d ef69 463e 34d1 553e 8d25 473e
000000a0: 0000 0000 0000 0000 4bf6 e5bc 0000 0000
000000b0: d967 493e 0000 0000 0000 0000 50ff 4d3e
000000c0: d4d9 3b3e 0000 0000 a30b b3bc 0000 0000
000000d0: 0000 0000 0000 0000 8d86 103e 0000 0000
000000e0: a270 e4bd 0ce2 03be 4e3a 4d3e 8339 413e
000000f0: b121 643e 7c2b 573e 9ba5 0f3e 0000 0000

sequential_1/dense_1/MatMul f4 [64, 2]
0.004918178 0.28924885 -0.0003694296 -0.29798722 -0.22108935 0.21609163 0.061604235 -0.14526977
0.27272207 0.24933605 0.24052408 0.28671557 -0.24787095 0.07118401 -0.24229568 0.09892666
0.23173434 0.0896008 0.15737079 0.1738022 0.118061736 0.25678733 -0.13608764 0.23053187
-0.033159614 -0.087142825 -0.11603263 0.05010262 0.120487586 -0.29117763 -0.039917737 0.036233097
0.07676264 -0.17331468 0.1816327 -0.31107438 -0.28778177 -0.17182119 0.13694677 -0.05549425
0.19887406 -0.07391571 0.045907307 -0.29708585 -0.02794543 -0.13880803 0.22894762 0.26208952
-0.24953827 0.2826656 -0.19669372 -0.13734147 -0.09622733 -0.13183624 0.25719512 0.058834363
-0.095629096 -0.06881623 0.06926977 0.3007858 0.07988918 -0.1970486 0.2890031 0.08389324
0.065943934 0.19048934 0.115930445 0.22239482 0.095159456 0.1752123 0.009637825 -0.07541606
0.20901439 0.15398148 0.021125155 0.24711658 0.28060555 0.20374179 0.08476209 0.30586353
-0.16229983 0.17306978 -0.14662237 0.2334454 0.00975113 -0.25999495 -0.09070003 0.11459878
0.12611999 -0.03999363 -0.12675951 -0.04882863 -0.25257912 0.29746944 0.13184781 0.30428147
0.19243932 -0.09455568 -0.21098205 -0.18824339 -0.066582344 0.14845844 -0.22382072 0.22968513
-0.13512681 -0.12889495 -0.0012493134 -0.0653757 0.12066016 0.039083235 -0.20428005 -0.29898146
0.21942082 0.26871175 0.07261067 0.04977603 0.17080586 0.17090656 0.17543642 0.077709965
0.17351852 -0.029184872 0.049686026 0.28072906 0.31177676 0.18124686 -0.16249436 -0.2940966
00000000: ab28 a13b 6d18 943e 00b0 c1b9 c891 98be
00000010: 3f65 62be 2047 5d3e b954 7c3d 99c1 14be
00000020: 3aa2 8b3e f351 7f3e f24b 763e 62cc 923e
00000030: e2d1 7dbe ecc8 913d 5c1c 78be 109a ca3d
00000040: c44b 6d3e a080 b73d cf25 213e 34f9 313e
00000050: 5aca f13d a179 833e 8f5a 0bbe 8c10 6c3e
00000060: 60d2 07bd f077 b2bd 84a2 edbd 6838 4d3d
00000070: 32c2 f63d 3c15 95be c880 23bd 2869 143d
00000080: bb35 9d3d 6779 31be ecfd 393e 2445 9fbe
00000090: 2258 93be e5f1 2fbe c63b 0c3e f04d 63bd
000000a0: a4a5 4b3e 1f61 97bd 4d09 3c3d a31b 98be
000000b0: d0ed e4bc b123 0ebe 3f71 6a3e 9930 863e
000000c0: f686 7fbe 8cb9 903e 146a 49be 3ea3 0cbe
000000d0: d612 c5bd 1400 07be 14af 833e 4dfc 703d
000000e0: 30d9 c3bd 86ef 8cbd 4fdd 8d3d 9900 9a3e
000000f0: f09c a33d 1cc7 49be 37f8 933e 38d0 ab3d
00000100: 9d0d 873d a30f 433e f16c ed3d 78bb 633e
00000110: f6e2 c23d da6a 333e f8e7 1d3c bc73 9abd
00000120: de07 563e 52ad 1d3e a90e ad3c 210c 7d3e
00000130: 88ab 8f3e b0a1 503e bf97 ad3d 259a 9c3e
00000140: ed31 26be 3439 313e 2d24 16be 500c 6f3e
00000150: 34c3 1f3c 0f1e 85be f0c0 b9bd c4b2 ea3d
00000160: 9925 013e 5cd0 23bd 3fcd 01be 8800 48bd
00000170: 0d52 81be ea4d 983e 1d03 073e c8ca 9b3e
00000180: d00e 453e 69a6 c1bd ae0b 58be e0c2 40be
00000190: 535c 88bd 7d05 183e 4231 65be 9432 6b3e
000001a0: af5e 0abe 0afd 03be 00c0 a3ba b2e3 85bd
000001b0: ad1c f73d be15 203d ca2e 51be 1914 99be
000001c0: daaf 603e 9694 893e e7b4 943d f3e1 4b3d
000001d0: bbe7 2e3e 2102 2f3e 9ba5 333e 6726 9f3d
000001e0: d7ae 313e 1d15 efbc 9383 4b3d b8bb 8f3e
000001f0: 34a1 9f3e c798 393e ec64 26be d493 96be
