models/tkph/model.tflite (tflite, 11092 bytes, 5 tensors)

sequential/dense_1/BiasAdd/ReadVariableOp f4 [32]
0	0xbceaa4ea	-0.02864309
1	0x00000000	0.0
2	0x00000000	0.0
3	0xbbeab8a9	-0.0071631265
4	0xbcf3b40e	-0.029748943
5	0x3e3c1a0f	0.18369316
6	0x3e3b4d8f	0.18291305
7	0x00000000	0.0
8	0x00000000	0.0
9	0x3e2bc46c	0.16774148
10	0xbb925f87	-0.004466954
11	0x00000000	0.0
12	0x3e2d85fc	0.16945642
13	0x00000000	0.0
14	0x3e296053	0.16540651
15	0xbd3ce3ad	-0.046115566
16	0x00000000	0.0
17	0x3e295ca0	0.1653924
18	0x00000000	0.0
19	0xbcd97a92	-0.026547704
20	0x00000000	0.0
21	0x00000000	0.0
22	0x3e2fb012	0.17157009
23	0x3e356817	0.17715488
24	0x00000000	0.0
25	0x00000000	0.0
26	0xbcc25228	-0.023720816
27	0x3e350477	0.17677484
28	0xbb430c06	-0.0029761805
29	0x3e32d25e	0.17463061
30	0xbbb74009	-0.0055923504
31	0x3e28ecb1	0.1649654

sequential/dense/BiasAdd/ReadVariableOp f4 [64]
0	0x00000000	0.0
1	0x3cb69485	0.022287617
2	0x00000000	0.0
3	0x3e0d193f	0.13779162
4	0x00000000	0.0
5	0x3e37ec52	0.17961243
6	0x00000000	0.0
7	0x3db5dfc1	0.08880568
8	0x00000000	0.0
9	0xbbe4e5cc	-0.0069854017
10	0x00000000	0.0
11	0x00000000	0.0
12	0x3e4658a3	0.1936975
13	0x00000000	0.0
14	0x00000000	0.0
15	0x00000000	0.0
16	0x3e0f8bbc	0.14018148
17	0xbc8ec3a5	-0.017427275
18	0x3e3a9352	0.1822026
19	0x3e40da27	0.18833219
20	0x00000000	0.0
21	0x3e2806e3	0.16408877
22	0x3e333061	0.17498924
23	0x00000000	0.0
24	0xbddd8c65	-0.10817794
25	0x00000000	0.0
26	0x00000000	0.0
27	0xbb564d75	-0.0032699977
28	0xbcb244e6	-0.021761369
29	0x3e416ad1	0.18888403
30	0x00000000	0.0
31	0x00000000	0.0
32	0x3e2e9c0c	0.17051715
33	0x00000000	0.0
34	0x3e1b3fc5	0.15161045
35	0x00000000	0.0
36	0xbdcdb472	-0.10044183
37	0x3ddf9e3f	0.10918855
38	0x3e3741f8	0.17896259
39	0x00000000	0.0
40	0x00000000	0.0
41	0x00000000	0.0
42	0x00000000	0.0
43	0x00000000	0.0
44	0x3da3b7e9	0.079940625
45	0xbd825fe9	-0.0636595
46	0xbc8d9302	-0.017282013
47	0x3e17e3a8	0.14832938
48	0xbe008b9e	-0.1255326
49	0x3e209ab8	0.1568402
50	0x3e2c68cd	0.16836853
51	0x3cfb0ca3	0.030645674
52	0x3e4616d2	0.19344643
53	0x3c20a776	0.009805551
54	0x3e1bd11a	0.15216485
55	0x00000000	0.0
56	0x3e0f9434	0.14021379
57	0x3e334416	0.17506441
58	0x3e3b9de3	0.18321948
59	0x00000000	0.0
60	0x3e30f265	0.17279966
61	0x3e33af3b	0.17547314
62	0x00000000	0.0
63	0x00000000	0.0

sequential/dense/MatMul f4 [64, 2]
0	0xbd7128a4	-0.05887665
1	0xbc48ff60	-0.012267917
2	0x3e4cc12c	0.19995564
3	0x3cd041b6	0.025421958
4	0xbe884c5f	-0.26620767
5	0xbe18c261	-0.149179
6	0x3e65360d	0.223839
7	0x3d860379	0.06543631
8	0xbde30736	-0.1108536
9	0xbd281088	-0.04103139
10	0x3dcf7cd9	0.10131235
11	0xbc94de40	-0.018172383
12	0xbe67ad04	-0.22624594
13	0xbe8bddb5	-0.27317587
14	0x3e4ecde0	0.20195723
15	0xbdef1067	-0.116730504
16	0xbd9955e0	-0.074870825
17	0xbdc1cd5a	-0.09462996
18	0x3d47e2a7	0.048800137
19	0xbe1fdd4d	-0.15611763
20	0xbe14e203	-0.14539342
21	0xbd8880fa	-0.06665225
22	0xbe12e21f	-0.14344071
23	0x3b851140	0.0040608943
24	0x3da6ab71	0.081381686
25	0xbe437d92	-0.1909087
26	0xbe7635d1	-0.24043967
27	0x3e4b84a8	0.19874823
28	0xbdb7f20a	-0.08981712
29	0x3e4284ba	0.18995944
30	0xbe94087b	-0.2891272
31	0x3e49df80	0.19714165
32	0x3dc356bc	0.09538028
33	0x3e946e83	0.28990564
34	0xbdfe8bbc	-0.12428996
35	0x3e8f6445	0.28006187
36	0x3e774f95	0.24151452
37	0xbe666f3e	-0.22503373
38	0x3da7ff5d	0.082030036
39	0xbd9e5645	-0.07731298
40	0xbdb23a22	-0.08702494
41	0x3e4b15fa	0.19832602
42	0x3df2f168	0.11862451
43	0x3e8f1443	0.27945146
44	0x3e362102	0.17786029
45	0x3e2f10c0	0.17096233
46	0xbdbbd100	-0.09170723
47	0xbe4b678e	-0.19863722
48	0x3d432f0d	0.047652293
49	0xbe76830d	-0.2407343
50	0xbe2997f0	-0.16561866
51	0x3e5c6428	0.21522582
52	0xbe4daf87	-0.2008649
53	0xbe30a8fd	-0.17251964
54	0xbdd0815d	-0.10180924
55	0x3e712ad5	0.23551495
56	0xbc1e3fe5	-0.009658788
57	0xbc604132	-0.013687419
58	0xbcd332b6	-0.025781017
59	0x3e999612	0.29997307
60	0xbdc45c2a	-0.095878914
61	0xbe585e50	-0.21129727
62	0xbe204661	-0.15651847
63	0xbe63e2bc	-0.22254461
64	0x3e6e0f84	0.23248106
65	0x3d74e593	0.05978925
66	0xbe5abe4f	-0.2136166
67	0x3c577ba0	0.013152033
68	0x3d0a8385	0.033816833
69	0x3dc1f3ac	0.09470305
70	0xbe7e9ab5	-0.24863704
71	0xbe081b85	-0.13291748
72	0x3c877713	0.016536271
73	0xbe0afc89	-0.13572897
74	0x3dd6cb4b	0.10487994
75	0x3e3bf805	0.1835633
76	0x3d02d446	0.03194072
77	0x3ea4164d	0.32048264
78	0xbce72db0	-0.028220028
79	0xbe8c8d10	-0.27451372
80	0xbdce5f80	-0.10076809
81	0xbe69f5aa	-0.2284762
82	0xbe8969f3	-0.26838645
83	0x3dee510c	0.11636552
84	0xbe3cacea	-0.18425336
85	0x3d37b730	0.044852436
86	0xbe826212	-0.25465447
87	0xbd7ba814	-0.06143959
88	0x3e008b53	0.12553148
89	0x3e155eb2	0.14586905
90	0xbd46961c	-0.048483
91	0x3e6d4f3e	0.2317476
92	0xbbbee5d4	-0.0058257375
93	0xbd13d481	-0.03609133
94	0x3e6589b6	0.22415814
95	0xbe680d2a	-0.22661272
96	0x3d4555b0	0.04817742
97	0xbe7fdfd3	-0.24987726
98	0x3d50f4f1	0.051014844
99	0x3e6215fb	0.22078697
100	0x3db8a05a	0.0901496
101	0x3e5244b7	0.20534025
102	0xbaf85248	-0.001894542
103	0x3e0d7434	0.13813859
104	0x3bebf36f	0.0072006504
105	0x3ea937e9	0.3305047
106	0x3d796b74	0.06089349
107	0x3d401f86	0.046905063
108	0x3e62c8a7	0.22146855
109	0xbdc69375	-0.09696094
110	0xbe2fb697	-0.17159496
111	0x3e118958	0.14212549
112	0x3df016e2	0.117231146
113	0x3d92825e	0.07153772
114	0x3ea9cbbc	0.3316325
115	0x3e93350c	0.2875141
116	0x3ea35c03	0.31906137
117	0x3da30937	0.07960742
118	0xbe0420c9	-0.12903132
119	0x3e500bec	0.20317048
120	0x3eaf5521	0.34244636
121	0xbe5e4700	-0.21706772
122	0x3e97074d	0.29497758
123	0xbe5175ae	-0.20455047
124	0xbe68061d	-0.22658582
125	0xbd934a98	-0.07191962
126	0xbc80c160	-0.015717208
127	0x3c82fd30	0.01598987

sequential/dense_1/MatMul f4 [32, 64]
0	0x3e66ae30	0.22527385
1	0xbe1578b2	-0.14596823
2	0xbe6bcc58	-0.2302717
3	0x3e197042	0.14984229
4	0xbe6fb248	-0.23407853
5	0xbe80705c	-0.25085723
6	0x3dca2100	0.098695755
7	0x3d8de803	0.06929018
8	0xbda543f0	-0.08069599
9	0xbe8297b5	-0.25506368
10	0x3e328a60	0.17435598
11	0x3e649b9c	0.22324985
12	0xbe4b34d3	-0.1984437
13	0xbd8b2fa8	-0.06796199
14	0x3de8aeb8	0.1136145
15	0xbe2b4a7c	-0.16727632
16	0x3e504050	0.20337033
17	0xbe0c6610	-0.13710809
18	0x3d825710	0.06364262
19	0x3d86eb40	0.06587839
20	0xbe75ec8c	-0.24016017
21	0xbd00d925	-0.031457085
22	0x3e37f49e	0.17964408
23	0x3e416d14	0.18889266
24	0x3e5ee4f5	0.21767028
25	0x3e546da4	0.2074495
26	0x3da4aa28	0.08040267
27	0x3d5955e0	0.053060412
28	0x3e02c574	0.12770635
29	0xbd85dc78	-0.06536192
30	0x3e2112bc	0.15729803
31	0x3d2988a0	0.04139006
32	0x3d72bcef	0.059262212
33	0xbcb13060	-0.021629512
34	0xbdd308da	-0.10304423
35	0xbdd555f8	-0.10416788
36	0xbdc01d91	-0.09380639
37	0xbe6153d4	-0.22004634
38	0x3d175645	0.036947507
39	0x3d9fa3a8	0.07794887
40	0x3e19a150	0.15002942
41	0x3c90e860	0.01768893
42	0xbe297418	-0.16548193
43	0x3e6689bc	0.22513479
44	0xbe4c43ed	-0.19947787
45	0xbcae4ac0	-0.021275878
46	0x3dd562b8	0.1041922
47	0xbd1a5ec1	-0.03768802
48	0x3d4c1949	0.0498288
49	0xbe803be8	-0.25045705
50	0xbe2d89d2	-0.16947106
51	0xbe3b4e62	-0.1829162
52	0x3db2883c	0.08717391
53	0xbd876faa	-0.06613095
54	0xbdde8268	-0.10864717
55	0x3e06c9f4	0.13162977
56	0xbd7775cf	-0.060415085
57	0xbe4b25d7	-0.19838654
58	0xbe7d9366	-0.2476326
59	0xbe3095c0	-0.17244625
60	0x3e128f35	0.14312442
61	0x3e0de81a	0.13858071
62	0x3d6ccbf0	0.057811677
63	0xbe4b01ac	-0.19824857
64	0x3e0f2d78	0.13982189
65	0x3e0cb930	0.13742518
66	0x3e76d308	0.2410394
67	0xbd9db280	-0.07700062
68	0x3e7da584	0.2477017
69	0xbe56b628	-0.20967925
70	0xbd9df0c0	-0.07711935
71	0xbde99830	-0.114059806
72	0x3e2a7b80	0.16648674
73	0xbd0de3e0	-0.034641147
74	0x3dd60dd0	0.10451853
75	0xbe671a24	-0.22568566
76	0xbb29a100	-0.0025883317
77	0x3e5b36bc	0.21407598
78	0x3dea7030	0.11447179
79	0xbe6262c8	-0.22107995
80	0xbe1c3878	-0.15255916
81	0x3e28c85c	0.16482681
82	0xbe5e953c	-0.21736616
83	0x3da547a8	0.08070308
84	0x3e4fcd5c	0.20293182
85	0xbe3f1750	-0.18661237
86	0xbdf6a0e0	-0.12042403
87	0xbddca908	-0.10774428
88	0xbe329720	-0.17440462
89	0x3d861058	0.06546086
90	0x3e085278	0.1331271
91	0x3da7c968	0.08192712
92	0xbe066198	-0.13123167
93	0x3d9d8128	0.0769065
94	0x3caccda0	0.021094143
95	0xbe2ff8bc	-0.17184728
96	0x3e3b66f4	0.18300992
97	0xbdd57148	-0.10421997
98	0x3daa4b70	0.0831517
99	0x3c8f4f40	0.017493844
100	0xbdc20d78	-0.09475225
101	0xbd715560	-0.05891931
102	0x3bef6f80	0.007306993
103	0xbcd62a40	-0.026143193
104	0xbd3f2010	-0.046661437
105	0xbe008b24	-0.12553078
106	0xbd934ca0	-0.071923494
107	0x3e135064	0.14386135
108	0xbd87b250	-0.06625807
109	0x3e085784	0.13314635
110	0xbb73a100	-0.003717482
111	0xbcb262c0	-0.021775603
112	0x3e648e64	0.22319943
113	0x3df105b0	0.11768663
114	0x3dbfe9c0	0.09370756
115	0xbc9958c0	-0.018719077
116	0xbe42b9a8	-0.19016135
117	0xbd0de770	-0.034644544
118	0xbdad6bc0	-0.08467817
119	0x3dcfc1a8	0.10144359
120	0x3e4fa2bc	0.20276922
121	0xbdbd31d8	-0.092380226
122	0xbe029be4	-0.1275478
123	0xbe718848	-0.23587143
124	0xbe71ac14	-0.23600799
125	0xbe1e5004	-0.15460211
126	0x3de8bc60	0.11364055
127	0x3e63e300	0.22254562
128	0x3d0da800	0.034584045
129	0xbd6732d0	-0.056444943
130	0xbd0bb9e0	-0.03411281
131	0x3e603b0c	0.21897525
132	0xbe794be4	-0.24345356
133	0xbe1e8c58	-0.15483224
134	0x3c9defa0	0.019279301
135	0x3e7330c4	0.23749071
136	0x3c10c140	0.008835137
137	0xbe3d4d3c	-0.18486494
138	0x3d6ac870	0.05732006
139	0x3e74f818	0.23922765
140	0xbdba2590	-0.09089196
141	0xbe72b274	-0.23700887
142	0x3dcf4a90	0.101216435
143	0x3e4863c4	0.19569308
144	0x3e44eccc	0.19230956
145	0xbe603f0c	-0.2189905
146	0x3e382728	0.17983687
147	0xbe539994	-0.20664054
148	0x3cee1b00	0.029065609
149	0x3d945638	0.072430074
150	0xbe391710	-0.18075204
151	0x3d36ab50	0.04459697
152	0x3d46ed00	0.048565865
153	0x3dab3f78	0.08361715
154	0x3e0e3004	0.13885504
155	0x3e4e0d40	0.20122242
156	0xbe6a761c	-0.22896618
157	0xbd9193f0	-0.07108295
158	0xbe65cb2c	-0.22440785
159	0xbc9a8280	-0.018861055
160	0xbd613010	-0.054977477
161	0x3de816e8	0.11332494
162	0xbe20b750	-0.15694928
163	0xbe64c884	-0.22342116
164	0x3bd50280	0.006500542
165	0x3d027210	0.03184706
166	0x3d95e570	0.07319152
167	0x3e568900	0.20950699
168	0x3dfe3f80	0.124144554
169	0x3b7f6800	0.00389719
170	0xbd8d4b30	-0.068991065
171	0xbc847500	-0.016169071
172	0xbdf29a18	-0.11845797
173	0xbe3d917c	-0.18512529
174	0x3e400688	0.18752491
175	0xbe2d97e0	-0.16952467
176	0xbe4daef8	-0.20086277
177	0xbe5d64cc	-0.21620482
178	0xbe25f7a4	-0.16207749
179	0xbe469834	-0.19393998
180	0x3e001db8	0.12511337
181	0xbd33c5d0	-0.04388982
182	0x3bb62980	0.0055591464
183	0xbe2e663c	-0.17031187
184	0x3dfbd000	0.12295532
185	0xbd5be840	-0.053688288
186	0xbe114444	-0.14186198
187	0xbe40cae4	-0.18827397
188	0x3e4a2e24	0.19744164
189	0xbe641cec	-0.22276658
190	0x3e6b98a0	0.2300744
191	0xbe0ddc20	-0.13853502
192	0x3ca781a0	0.020447552
193	0xbe1136ff	-0.14181136
194	0x3e051c80	0.12999153
195	0x3c80863e	0.015689012
196	0x3d0572e0	0.032580256
197	0x3d59d4c4	0.053181425
198	0xbd7c38c0	-0.06157756
199	0x3d0838b1	0.03325719
200	0xbc77e8c0	-0.0151311755
201	0x3d79e091	0.06100518
202	0xbd8c3710	-0.0684644
203	0xbe334508	-0.17506802
204	0x3e6baf44	0.23016077
205	0xbdb7dc58	-0.08977574
206	0xbcb31ce0	-0.021864355
207	0x3d9126b0	0.07087457
208	0xbe44af35	-0.19207461
209	0xbe7b3918	-0.24533498
210	0xbe0ff827	-0.14059506
211	0x3d7cb521	0.061696175
212	0x3db8de70	0.090268016
213	0x3dbe905a	0.093048766
214	0x3d3825d6	0.04495796
215	0xbe77c728	-0.24197066
216	0x3d3c1c39	0.045925353
217	0xbe26949c	-0.16267627
218	0x3d85dae8	0.06535894
219	0x3e010d24	0.12602669
220	0x3e0272d4	0.12739116
221	0xbe444580	-0.19167137
222	0xbd630970	-0.055428922
223	0x3ce5a6a0	0.028033555
224	0xbcc97323	-0.024591034
225	0xbd2c3910	-0.042046607
226	0x3d8988db	0.06715556
227	0xbd9ed258	-0.07754964
228	0xbe322bae	-0.17399475
229	0xbcb680ba	-0.022278178
230	0x3ceb5ce3	0.028730815
231	0x3e78d0b0	0.24298358
232	0x3da77260	0.08176112
233	0x3e16e014	0.14733917
234	0xbd1ab500	-0.03777027
235	0x3e6539d0	0.22385335
236	0x3d801785	0.06254486
237	0xbda25548	-0.07926422
238	0x3ceddec0	0.02903688
239	0x3de3aeea	0.111173466
240	0x3d57760e	0.05260282
241	0x3e13f8cc	0.14450377
242	0xbabad3e1	-0.0014253819
243	0xbdee4819	-0.11634845
244	0xbddee4a5	-0.10883454
245	0xbe23d23b	-0.15998165
246	0x3c922f00	0.017844677
247	0x3e658958	0.22415674
248	0xbe62c62a	-0.22145906
249	0xbe1e5cc7	-0.15465079
250	0x3da03075	0.078217424
251	0x3e34f8b8	0.17673004
252	0x3e184775	0.14871009
253	0xbd952288	-0.07281977
254	0xbd647560	-0.055776
255	0xbd308160	-0.04309213

sequential/dense_2/MatMul f4 [1, 32]
0	0xbe8b6517	-0.27225563
1	0xbe9a3a3e	-0.3012256
2	0x3e97d6c2	0.29656035
3	0x3e59f0fa	0.21283332
4	0xbea89573	-0.3292652
5	0x3d8ac16c	0.067751735
6	0x3d97cd2f	0.074121825
7	0x3e92538e	0.28579372
8	0xbe4ae0ae	-0.19812271
9	0x3ec49e1b	0.38401875
10	0xbed0b2a7	-0.407613
11	0xbdee6cb4	-0.11641827
12	0x3e260b22	0.16215184
13	0x3e8e8a96	0.27840108
14	0x3ed9d685	0.42546478
15	0xbe941082	-0.28918844
16	0xbea2f09d	-0.31824198
17	0x3edd0313	0.43166408
18	0x3e8e4724	0.2778865
19	0xbd3ca464	-0.046055213
20	0x3e81fd40	0.25388527
21	0xbe7acbb8	-0.24491775
22	0x3df9e7df	0.12202429
23	0x3ec3d8d4	0.38251364
24	0x3d8dfdc4	0.069331676
25	0xbd46bd98	-0.048520654
26	0xbe07d8a4	-0.13266236
27	0x3db6de96	0.08929174
28	0xbe86483c	-0.26226985
29	0x3de834e4	0.11338213
30	0xbe9af168	-0.30262303
31	0x3ef2bcef	0.4740977
