models/anamoly.tflite (tflite, 4972 bytes, 6 tensors)

sequential/dense_1/BiasAdd/ReadVariableOp f4 [16]
00000000: 0000 0000 0000 0000 0000 0000 308a 05bd
00000010: 6fdb c5bc c12f 613b 9333 063d 0000 0000
00000020: 0000 0000 0000 0000 cdfa 3ebc 209b f73c
00000030: 2248 0cbd 0000 0000 2311 043d 92a2 013d
0.0 0.0 0.0 -0.03260249 -0.024152486 0.003436074 0.03276403 0.0
0.0 0.0 -0.011656475 0.030225337 -0.03424848 0.0 0.032242905 0.03164918

sequential/dense_2/BiasAdd/ReadVariableOp f4 [2]
00000000: 3b50 083d 3c50 08bd
0.03327964 -0.033279642

sequential/dense/BiasAdd/ReadVariableOp f4 [32]
00000000: 0000 0000 0000 0000 0000 0000 6b7f 13bd
00000010: e914 91bc 0000 0000 0000 0000 0000 0000
00000020: 9f38 c2bc 838a 4abc 0000 0000 a5b7 ef3c
00000030: 31e2 f6bd 0000 0000 1d43 4bbd 0000 0000
00000040: 0000 0000 9570 02bd c2c0 083d 1657 41bc
00000050: 0000 0000 a2a4 143d 565a 6e3c 9fb6 cdbc
00000060: 0c22 b4bc ca9e 49bc f4ac 01bc dbff 80ba
00000070: 0000 0000 f5e8 0e3d 0000 0000 97e5 c8bc
0.0 0.0 0.0 -0.036010187 -0.017710166 0.0 0.0 0.0
-0.02370864 -0.012362125 0.0 0.029262373 -0.12054861 0.0 -0.04962455 0.0
0.0 -0.031845648 0.033386953 -0.011800548 0.0 0.03628982 0.014547905 -0.025111495
-0.021988891 -0.012305925 -0.00791477 -0.0009841876 0.0 0.034890134 0.0 -0.02452354

sequential/dense/MatMul f4 [32, 4]
00000000: 5e10 8abe c0e8 9b3b 5f31 52be 0cdc a3be
00000010: c9a3 a8be 0c87 703e 4bb2 c7be 7232 88be
00000020: ca1d bbbe 0830 fa3d 682e 613d 802c a4bd
00000030: 2ac4 17be c7f7 40be 7ab1 ba3e 9724 c13e
00000040: bd4c 133e 36af 823d e6ed 243e e53e db3d
00000050: 7023 6fbe 54fc 823e f372 6cbe d452 623e
00000060: 5cfc a2bd 8028 6bbd 467f 9bbe be50 32be
00000070: 3627 26be 241c a63e 12ac 82be 5bde 89be
00000080: 8e15 843e f15c b3be 40a3 953d 2c2b 653d
00000090: a698 fc3c f1c0 b43e 00c8 a33e 05a7 8b3c
000000a0: 540b 9cbe b813 05bd 90c5 d23d d4d1 0ebe
000000b0: bed6 b23e 8cbe c7be d142 81bd 4a60 bf3e
000000c0: 8871 75be 91c3 b9bd 6578 a03e b593 073e
000000d0: cd3e bdbe 0807 f03d f0d0 333e d8c2 14bd
000000e0: 0d76 cb3e 7042 91be 319c 033e 5174 b93d
000000f0: 9cf3 92be d050 e0bd 3cc4 14be b655 863e
00000100: 4b99 b4be f895 0bbd 10a1 c5be f66a 1abe
00000110: 2530 3e3e 48db bbbe a1b4 943e 2c57 0d3e
00000120: 7f47 853c 1a8f 88be 6cd8 3b3e e62b 993e
00000130: 0c22 843e 90d0 983e 7b9d 2dbd 5016 f5bd
00000140: 0a3a 82be 38f9 7a3e 1ecb 89be f802 4d3e
00000150: 2c7b 393e 2876 9e3d d831 503e 5e88 b23e
00000160: 85ae 393e 4791 c63e 7461 0dbe 93a6 2ebe
00000170: 6aa6 b33d 7183 4f3e 142d 913e 67cf 963e
00000180: 108d d33e 4564 36be 8d57 c33d 9c9a 0f3d
00000190: 733c a73e f9d2 8abd 5913 823d 4057 50be
000001a0: ca99 b73e 6552 a13d 793c 73be f331 763e
000001b0: e1e2 683d 3a77 9fbe 4cf4 103e e6e9 913e
000001c0: 5436 c7be 789d 5e3e 70d9 8fbc 9a7a 2ebe
000001d0: 0ef0 02be 17ad 0b3e 3bd1 c03e 60cf ecbd
000001e0: c9c3 c7be 66e3 8cbe 306a 8c3e 38be b5bd
000001f0: 98d7 04bd 000f 9f3e 0daa 8c3e b052 0ebe
-0.26965612 0.0047579706 -0.20526646 -0.3200382 -0.32937458 0.23489016 -0.39003214 -0.26600987
-0.36546165 0.122161925 0.054975897 -0.080163 -0.14820924 -0.1884452 0.3646353 0.37723228
0.14384742 0.06381075 0.16106376 0.107053556 -0.23353362 0.25583136 -0.23090725 0.22101909
-0.0795829 -0.05741167 -0.3037054 -0.17413613 -0.16225895 0.32443345 -0.25521904 -0.26927456
0.25797695 -0.35031846 0.07306528 0.055949375 0.030834507 0.35303453 0.31988525 0.017047415
-0.30477393 -0.03248951 0.10291588 -0.1394723 0.3492946 -0.39012563 -0.06311572 0.3737815
-0.2396909 -0.090705045 0.31341854 0.1323994 -0.36961976 0.11720091 0.17560172 -0.03631863
0.39738503 -0.28371 0.12852551 0.09055389 -0.28701484 -0.10952914 -0.14527982 0.26237267
-0.35273203 -0.03407857 -0.38599443 -0.15079865 0.18573053 -0.36690736 0.2904406 0.13802785
0.016269444 -0.26671678 0.18344277 0.29916304 0.25807226 0.2984662 -0.042386513 -0.119671464
-0.25434905 0.24509132 -0.2691278 0.20020664 0.18113393 0.0773738 0.20331514 0.34869665
0.1813298 0.38782713 -0.13806707 -0.1705573 0.08771975 0.20264985 0.28354704 0.2945511
0.4131856 -0.17811687 0.09538183 0.035059556 0.32663307 -0.06778521 0.063513465 -0.20345783
0.3585952 0.07877044 -0.23753537 0.24042492 0.056856994 -0.3114565 0.14155692 0.28498763
-0.38908637 0.21739757 -0.017559737 -0.17038956 -0.12786886 0.13640247 0.3765963 -0.11562991
-0.3901656 -0.2751724 0.27424765 -0.08874172 -0.03243217 0.31066132 0.27473488 -0.1389873

sequential/dense_1/MatMul f4 [16, 32]
00000000: c4fa 44be 380c 8dbe 930d b13e 0e20 423e
00000010: 1861 0f3e 00bf 4bbc ca46 a6be ae45 053e
00000020: 48ec 62bd 949d acbd 8858 7abe 90b6 bebc
00000030: 2829 37be 007f d03a 94ee cbbd 29fe ae3e
00000040: 53f2 2bbe ffdd b1be aef5 763e ba86 2cbe
00000050: d07a 5d3d 84c7 7cbe 80ed 6abc 6981 37be
00000060: b5a7 97be 5d1c 4cbe 55f5 993e a5bb b13e
00000070: 2c34 f8bd 00e5 83be 7042 96bd a815 0f3e
00000080: 8e92 efbd e640 073e 6dfe 63be cb91 853e
00000090: 3b8d abbe d883 a0be b0a2 3abd 192d 81be
000000a0: 3ef5 96be bc1b 9abd 63b1 aa3e a0ba 37bd
000000b0: be71 81be 1435 67be c078 453d d092 3fbd
000000c0: 8002 9c3d 70c6 a33d cd23 9bbe 80fa b13b
000000d0: 8ad6 543e a59d 863e 1929 a03e 60c3 a2bd
000000e0: 8432 b5bd 96d2 9ebe 70cb ddbc 915a a43e
000000f0: 7164 8d3e 2d28 943e 4bd3 39be 0061 eb3a
00000100: 20d7 72be 6cb2 05be 24c5 adbd b095 a5bd
00000110: 00f1 c13c a00b aabe 9a54 8abe ddaa ab3e
00000120: 8e7a aebe a071 55bc 903b e6bd a0ae 45bc
00000130: f0c9 293d 7007 993d b3b4 8bbe 24b6 58be
00000140: 1f47 a23e d8ea bdbd f1cf 833e 8a5e 3b3e
00000150: 5e1c 4e3e 29fc 843e eddd 88be 1212 7dbe
00000160: 20b8 523d ad7e 943e be94 393e 1039 81be
00000170: d84f 823d 8884 343d 1f10 93be b834 14be
00000180: ea8f 213e 3b22 28be 00ea fc3a 9655 373e
00000190: 048a 04be 45c3 893e 2cbb 113e f883 b5bd
000001a0: d8bf e7bd 5e53 6a3e b5ea 58be aa71 0bbe
000001b0: abbf 953e 9ff7 91be f317 4f3e 7130 73be
000001c0: 7f91 a73e 3003 593e bc56 3e3e c488 883d
000001d0: b2a1 e1bd 31d8 8cbe 3e08 0ebe 48f4 e03c
000001e0: 62b3 6e3d 876b 32bd 876b 83bd 42da ee3d
000001f0: 4bc8 a1be 5604 5cbe 94dd 11be 26bc 473d
00000200: 5afe 3fbe e087 2a3d a000 44bc ee51 9a3d
00000210: 29ad a0bc aab3 153e 1cd2 48be c8f3 8bbd
00000220: 0aff 86bd 4e98 843d c0c7 f03c c046 98be
00000230: c791 8e3e 5739 943e d13c 973e ee55 0c3e
00000240: 58bf 97bd f3b2 b63d bfe3 87be 33d7 33be
00000250: 059b b13e cd7d c0bc 00da 303d 972c b7bd
00000260: e3b7 35be 8736 94be 82a9 d03d e5e2 62bd
00000270: 1487 03be 6358 473e e54f 80be bd3d 263e
00000280: 99b3 973e 2742 8e3e 08ef 3ebd a9e6 85be
00000290: 630e aa3e 80aa 993b 451e 9c3e d229 623e
000002a0: 1cb1 833d 09f8 b0be b069 94be 21e6 a23d
000002b0: 3bf2 303c dc94 b6bd 8aca 91be b1a4 99be
000002c0: 5167 99be a65c b03d b066 873c b096 cbbd
000002d0: 5c5e 963d ba92 593e 7ea7 70bd 377c 8abb
000002e0: 7706 1d3e 9a25 30be a909 5c3e 824c babd
000002f0: da72 263e 898c e2be 5285 16be f5ad 203e
00000300: 2dc8 46be d058 bfbc 3e00 523e 9119 9c3e
00000310: 7dbd 753e e3ad 34be 5223 303e 105e da3c
00000320: b75b 113d 08ba 63be 4bbf 4abe 7d0b 323d
00000330: fd89 88be 784d 9b3d 1cc7 5bbe c426 4dbe
00000340: 3d54 6fbe 473e 5f3e f214 c43d 2f6e 533e
00000350: b864 6ebd 5307 533d 694b 4d3d 4510 3d3d
00000360: ce55 603c 9d50 8fbb 21e4 ee3c 11c2 77bc
00000370: e616 6e3e 5c16 233e d13d 4cbe 4281 2a3e
00000380: ba83 7a3e 8024 5fbb c10b aa3e 30d2 793d
00000390: 567f 50be a42e b33d de62 423e 7342 9bbe
000003a0: 20ba 69bd ab51 87be b693 553e de6c 613e
000003b0: bd31 4abe 5c41 95bd b02b e83d 5a47 473e
000003c0: 4b8a 853e f16e 15be c76b a73e 0994 a3be
000003d0: 2cb9 f9bd 60db 47be 33a3 9c3e a8c4 383d
000003e0: 6250 43be 9afa 753e d1eb a5be 20b6 8c3c
000003f0: 5ad9 41be 806d 09be 6891 f23d 614c 5dbe
-0.19236284 -0.27548385 0.3458067 0.1895754 0.14001882 -0.012435675 -0.32475883 0.13014862
-0.055401117 -0.08428493 -0.24447834 -0.023280412 -0.17886794 0.001590699 -0.099576145 0.34178284
-0.16791658 -0.34739682 0.24117157 -0.16848269 0.0540722 -0.24685484 -0.014338851 -0.1792046
-0.29620138 -0.19932695 0.30069986 0.34713474 -0.12119326 -0.2576065 -0.07336891 0.13973105
-0.11697875 0.1320835 -0.22265024 0.26087794 -0.33506188 -0.3135059 -0.045565307 -0.2522972
-0.2948398 -0.07524821 0.3333846 -0.044855714 -0.2528209 -0.22578841 0.04821086 -0.04677087
0.07617664 0.07996833 -0.3030075 0.0054314733 0.20784965 0.26292148 0.31281355 -0.07947421
-0.08847526 -0.3102004 -0.027074546 0.32100347 0.27615693 0.28936902 -0.18147008 0.0017957985
-0.23714876 -0.13056344 -0.08484867 -0.08085191 0.023674488 -0.33211994 -0.2701767 0.33528796
-0.34077877 -0.013027579 -0.112418294 -0.01206556 0.04145235 0.07472122 -0.272863 -0.21163231
0.31694886 -0.092733085 0.25744584 0.18297783 0.20128009 0.25973633 -0.26731816 -0.24713925
0.051445127 0.29002896 0.18123147 -0.25238848 0.06362885 0.044071704 -0.28723237 -0.14473236
0.15777555 -0.16419308 0.0019295812 0.17903742 -0.12943274 0.2690679 0.14231557 -0.08863062
-0.11315888 0.22883365 -0.21183284 -0.13617578 0.29247794 -0.28509232 0.2022398 -0.23748948
0.32728192 0.21192622 0.18587774 0.06666711 -0.11017169 -0.2750869 -0.13870332 0.027460232
0.05827654 -0.043559577 -0.064169936 0.11662723 -0.31598124 -0.21486029 -0.14244682 0.048763417
-0.18749371 0.041633487 -0.01196304 0.07535158 -0.01961382 0.14619318 -0.196114 -0.06833607
-0.065916136 0.06474362 0.029392123 -0.29741478 0.27845594 0.28949997 0.29538587 0.13704655
-0.07409543 0.089208506 -0.26540944 -0.1756256 0.34688583 -0.023497486 0.04317665 -0.08944052
-0.17745928 -0.2894785 0.10188581 -0.055392165 -0.12844497 0.1946731 -0.25060955 0.16234489
0.2962921 0.27784845 -0.046614677 -0.26152542 0.332141 0.0046895146 0.30491844 0.22086266
0.06430265 -0.34564236 -0.28986883 0.0795405 0.01079994 -0.089151114 -0.28474838 -0.30008462
-0.29961637 0.08611421 0.016528457 -0.09940851 0.07342216 0.21247378 -0.058753483 -0.0042262333
0.15334497 -0.17201844 0.2148806 -0.09096624 0.1625475 -0.44247845 -0.14699295 0.1569136
-0.19412299 -0.023357779 0.20507905 0.30488256 0.23998065 -0.17644458 0.17200974 0.02665618
0.035487857 -0.22238934 -0.19799535 0.043467987 -0.26667777 0.07583135 -0.21462673 -0.20034319
-0.23371978 0.218011 0.095743075 0.206475 -0.05820152 0.051520657 0.050120745 0.046158094
0.013692332 -0.0043736235 0.029161515 -0.015121953 0.23250923 0.15926498 -0.19945456 0.1665087
0.24464312 -0.0034048855 0.33212093 0.060991466 -0.20361075 0.0874913 0.18983027 -0.30324134
-0.05706227 -0.26429495 0.20857129 0.22014186 -0.19745536 -0.07287857 0.11336458 0.19460812
0.26082072 -0.14593102 0.32699415 -0.3194888 -0.12193522 -0.19517279 0.3059326 0.04510942
-0.19073632 0.24021378 -0.32406476 0.017176688 -0.1893057 -0.13420677 0.1184414 -0.21611167

sequential/dense_2/MatMul f4 [2, 16]
00000000: 868b 4bbe ac3b ce3e 0075 c73e e428 ecbe
00000010: 5ec8 07bf e8c4 22bd a5e3 403e 00a4 743c
00000020: 7039 3a3e 3840 9c3e cebc bebe 6a92 c1bc
00000030: 6a65 5cbe fc9b 57be 7a34 353e b4a3 963e
00000040: a0cd aa3e fef3 07bf 5ed7 ddbe c450 bd3d
00000050: c144 b23e 950e b83e 6edb 13be b604 51be
00000060: 7069 73bd 9ac2 b0be 8a12 123e cadf 55be
00000070: 79f4 dc3e 1616 b3be 2e9d fcbe 22d2 a7be
-0.19877443 0.402799 0.3895645 -0.46124947 -0.5304011 -0.039738566 0.1883684 0.014931679
0.18185973 0.30517745 -0.37253422 -0.023629386 -0.21523061 -0.21055597 0.176958 0.2942177
0.33360004 -0.5310668 -0.43328375 0.092439204 0.3481808 0.35948625 -0.14439175 -0.20411953
-0.059426725 -0.3452347 0.14264885 -0.2088615 0.43155268 -0.34977788 -0.4933867 -0.32777506
