models/tkph.tflite (tflite, 11092 bytes, 5 tensors)

sequential/dense_1/BiasAdd/ReadVariableOp f4 [32]
000000 bb 03 2d bd 00 00 00 00 d7 6a 7a bc 30 8e 26 bd
       -0.042239886 0.0 -0.015284262 -0.040662944
000010 35 f2 8f bc f2 11 5b bd 9b 9f 9d bc 4a 3a 67 bd
       -0.017571548 -0.05348391 -0.019241145 -0.056452073
000020 83 4e 8b bc 00 00 00 00 54 a8 48 bd 00 00 00 00
       -0.01700521 0.0 -0.048988655 0.0
000030 00 00 00 00 77 61 8a 3e 04 09 fb bc 00 00 00 00
       0.0 0.27027485 -0.030643947 0.0
000040 00 00 00 00 cf 3a 0c bd d7 a6 39 bc 5a 89 17 bc
       0.0 -0.03423577 -0.011331282 -0.009249056
000050 00 00 00 00 2c f4 62 bc 00 00 00 00 00 00 00 00
       0.0 -0.01385216 0.0 0.0
000060 23 04 0c bc 00 00 00 00 00 00 00 00 a6 56 2b bd
       -0.008545908 0.0 0.0 -0.04183068
000070 00 00 00 00 00 00 00 00 00 00 00 00 78 c1 54 bc
       0.0 0.0 0.0 -0.01298558

sequential/dense/BiasAdd/ReadVariableOp f4 [64]
000000 84 b8 9b 3e 00 00 00 00 00 00 00 00 00 00 00 00
       0.30414212 0.0 0.0 0.0
000010 25 64 5f bc b8 1c 10 bc 57 fa 47 3e 51 f4 8e 3e
       -0.013634716 -0.00879591 0.19529091 0.27920774
000020 00 00 00 00 d0 75 f1 bd 87 63 8d 3e 25 23 1c bc
       0.0 -0.11790049 0.27614996 -0.0095298635
000030 32 4b af 3e 00 00 00 00 00 00 00 00 7a 32 8c 3e
       0.34237057 0.0 0.0 0.2738226
000040 45 03 ab 3e 7c 32 8a 3e ca a4 3c 3e 00 de 02 3d
       0.33400932 0.26991642 0.18422237 0.031949997
000050 15 e6 46 be a6 26 9a 3e 00 00 00 00 00 00 00 00
       -0.19423707 0.3010761 0.0 0.0
000060 b4 3d 91 bd 00 00 00 00 00 00 00 00 00 00 00 00
       -0.07091847 0.0 0.0 0.0
000070 00 00 00 00 00 00 00 00 00 00 00 00 04 da 0c 3e
       0.0 0.0 0.0 0.13755041
000080 43 90 c1 bd 37 5d c0 3e 00 00 00 00 00 00 00 00
       -0.09451344 0.37571117 0.0 0.0
000090 00 00 00 00 7d 17 4d bd 00 00 00 00 00 00 00 00
       0.0 -0.05007123 0.0 0.0
0000a0 00 00 00 00 9b 01 28 be 00 00 00 00 00 00 00 00
       0.0 -0.16406862 0.0 0.0
0000b0 00 00 00 00 03 f9 a6 bd 65 04 4a be 00 00 00 00
       0.0 -0.08152964 -0.19728239 0.0
0000c0 27 a7 93 3e 00 00 00 00 34 35 80 3e 00 00 00 00
       0.28838465 0.0 0.2504059 0.0
0000d0 00 00 00 00 00 00 00 00 45 2a 39 3e d3 82 3f bd
       0.0 0.0 0.18082531 -0.046755623
0000e0 d3 11 8b 3e 00 00 00 00 c2 56 94 3e 00 00 00 00
       0.27162036 0.0 0.2897244 0.0
0000f0 bf 0b 0b bc 00 00 00 00 00 00 00 00 00 00 00 00
       -0.008486687 0.0 0.0 0.0

sequential/dense/MatMul f4 [64, 2]
000000 44 40 50 3e a0 37 ad 3e 3b 01 38 be 08 94 4e 3e
       0.20337015 0.338315 -0.1796922 0.20173657
000010 c6 12 38 be 88 c2 97 3e c5 fa 12 be e8 6d 40 3e
       -0.17975911 0.29640603 -0.14353473 0.18791926
000020 bd 61 a7 bc b7 e7 37 3d 08 18 dd bd ab 3d 76 3e
       -0.020432347 0.044898715 -0.10795599 0.24046962
000030 b4 90 84 3e e9 0e a4 3e 49 9c 94 3e 77 98 13 3e
       0.2589165 0.32042626 0.29025486 0.1441363
000040 b1 d4 95 be e0 43 be bd 42 1b 1c 3e 3f 79 01 3e
       -0.29263833 -0.0929029 0.15244773 0.12643908
000050 01 93 ea 3e d9 a2 c6 3e 33 2e 36 bb 37 ff d5 bd
       0.4581528 0.38796118 -0.0027798533 -0.10449069
000060 a3 86 8b 3e 17 2e ad 3d 26 c9 e4 bd 80 e6 9b 3b
       0.27251157 0.084560566 -0.111711785 0.0047577024
000070 eb 42 3f be 28 6d 81 bd 08 9c b7 3e 73 40 4b 3d
       -0.18677871 -0.06319648 0.3586123 0.04962201
000080 bc 26 45 3e 60 01 93 3e 95 42 ef 3e c3 81 42 3d
       0.19253057 0.28711987 0.46730486 0.04748703
000090 75 a7 de 3d c4 2b 36 be 9f 56 02 3e 83 14 2a be
       0.10871784 -0.17790133 0.12728356 -0.16609387
0000a0 f1 7c e6 3b c0 dd 3c 3d 7a fc cc 3e 43 5c cb 3e
       0.007033937 0.046109915 0.40036374 0.39718828
0000b0 20 ce 60 bc 06 56 85 bd 47 08 1b be 80 fd 24 bc
       -0.013721019 -0.06510548 -0.15139876 -0.010070205
0000c0 d3 8c 28 3b cc b8 fa bd 46 c4 8b bd ca 17 88 bd
       0.0025718703 -0.122422785 -0.068245456 -0.066451624
0000d0 38 4b 60 be 6e 81 40 3e be 4d 86 be 76 3f 60 be
       -0.21903694 0.18799374 -0.26231188 -0.21899208
0000e0 20 32 d9 bd f8 1c 3f bd 72 e8 6f be 04 8f 08 be
       -0.10605264 -0.046658486 -0.23428515 -0.13335806
0000f0 68 15 94 be 70 a1 07 bd 51 c8 5e 3e 1a 51 84 be
       -0.28922582 -0.033112943 0.21756102 -0.25843126
000100 b6 cb 8b 3b 9c f4 cc bd 78 f4 26 3e 4e 89 fd 3e
       0.0042662276 -0.10007593 0.16304195 0.49518818
000110 0a 73 a0 bd fa 4a 14 3e 76 a4 42 be a2 71 2b 3e
       -0.07834442 0.14481726 -0.1900805 0.16742566
000120 78 ef 37 bd ba 8d 35 be 3e b5 67 3d 2f ba da 3d
       -0.04490611 -0.17729846 0.05656933 0.10680043
000130 9b 71 8f be 0e 99 93 be dc 8b 3b be a0 45 a7 3d
       -0.28016362 -0.2882771 -0.18315071 0.08167577
000140 04 f9 df bd d4 3d 33 3e 74 c5 77 3c 2c 07 d6 bb
       -0.10936168 0.17504054 0.01512276 -0.0065316167
000150 5a 77 93 be ca 15 80 3e e8 ea 11 bd 78 8a 1c bd
       -0.28801996 0.25016624 -0.035624415 -0.03821799
000160 50 9e 98 be 94 be f4 3d 2c b8 ba 3c aa 49 2e be
       -0.29808283 0.119504124 0.022792898 -0.17020288
000170 74 2c c5 3d de b2 d8 be f6 8c e6 bd 30 1a 7b 3e
       0.096276194 -0.42323965 -0.11257355 0.24521708
000180 e3 65 a1 3e 29 f8 de 3e 9c c5 38 be 2e 88 39 be
       0.31523046 0.43548706 -0.18044132 -0.18118355
000190 12 07 91 3e fc 67 95 bc 00 42 b2 ba 08 7b 8c bd
       0.28325707 -0.01823806 -0.0013599992 -0.06859404
0001a0 c2 8f 99 be a8 a2 7c 3e 40 3d 89 bb b1 b4 1d be
       -0.2999249 0.24671423 -0.00418821 -0.1540096
0001b0 21 fe 33 3e 4d a5 a6 3e fb 0d 35 3b 42 0f 0a be
       0.17577411 0.3254799 0.0027626741 -0.13482383
0001c0 ea 45 47 3e 1a 84 0a be 9e d2 58 be f3 3c 13 be
       0.19460264 -0.13526955 -0.21174094 -0.14378719
0001d0 76 b1 8e 3e 76 1e ab 3d 10 33 5e bd 40 fd c8 bd
       0.27869767 0.08355419 -0.054247916 -0.098139286
0001e0 4a 2b 6e 3b be 14 20 be 10 e6 32 bd 8f 56 88 be
       0.003634172 -0.15632913 -0.043676436 -0.2662854
0001f0 40 dd 24 bc 9c 3d 84 be 6c 09 78 be ac 4a 51 3e
       -0.010062516 -0.25828254 -0.24222344 0.20438641

sequential/dense_1/MatMul f4 [32, 64]
000000 f6 72 86 be 78 a3 c6 3d e8 20 51 3e 70 b4 e5 bd
       -0.26259583 0.09699148 0.20422709 -0.11216056
000010 68 46 08 3e 37 de 16 3e 47 0c 55 bd f7 bf dc 3c
       0.13308108 0.14733206 -0.05201366 0.026947005
000020 00 71 f4 3b 08 b6 ec 3d a2 40 47 bd aa 37 c5 3d
       0.0074597597 0.11558157 -0.048645623 0.09629758
000030 92 7d 5a 3b b8 76 91 3d c4 c4 56 3e 74 0a 29 3e
       0.0033339006 0.07102722 0.20973498 0.16507894
000040 fd 9c b1 bd 73 bf 06 bd ca 0c 81 be 58 7a 05 3e
       -0.08672521 -0.032897424 -0.2520507 0.13034952
000050 7c 65 16 bd a6 8d 83 3b e0 dd 8c 3c e8 d6 b2 3d
       -0.036717877 0.0040146885 0.017195642 0.08732396
000060 cd 92 c5 bc 60 88 7e 3e c8 53 f0 bd 80 a6 14 3e
       -0.024117852 0.2485671 -0.1173473 0.1451664
000070 d0 5c 55 3d 90 06 d3 bd c8 70 58 3e 0a b7 20 bd
       0.052090466 -0.10303986 0.21136773 -0.03923706
000080 b5 07 18 3d 13 bc b3 bd f0 83 ba bd 90 b0 65 3d
       0.037116725 -0.08776107 -0.09107196 0.056076586
000090 7c bd 16 be 8e 2b de 3d 70 1e c5 bd 70 81 b2 3d
       -0.1472072 0.10848151 -0.09624946 0.087160945
0000a0 b8 e3 ba bd f1 90 36 be ec d6 51 be 04 7f 38 be
       -0.09125465 -0.17828728 -0.20492142 -0.18017203
0000b0 a0 45 a1 bc a0 10 02 bd 7f 59 c4 bd 80 84 37 3d
       -0.01968652 -0.031754136 -0.095873825 0.044804096
0000c0 46 56 c5 bd f0 e6 66 3e d4 24 d8 bd 10 f1 d9 3d
       -0.09635596 0.22549033 -0.105538994 0.10641682
0000d0 d4 dd 24 be 70 9c 74 3d b6 33 f1 3d 9d 83 39 be
       -0.16100246 0.059719503 0.11777441 -0.18116613
0000e0 3c f5 12 be 64 c7 06 be cb 83 a2 3d fc ae 32 3e
       -0.14351362 -0.13161999 0.07935294 0.17449564
0000f0 7a 92 3e be 20 6d da bc 68 de ec 3d 3c 00 16 be
       -0.18610564 -0.026663363 0.11565858 -0.14648527
000100 10 67 eb bd 90 48 11 3e f8 4e 56 be c0 d7 83 bd
       -0.11494267 0.14187837 -0.20928562 -0.064376354
000110 10 e3 44 3e 80 f9 73 be a4 f0 03 3e 60 7b ee 3d
       0.19227242 -0.23825645 0.12884766 0.11644626
000120 00 6d cf 3d fc 71 1a 3e 24 ea 6e be 14 40 6a 3e
       0.10128212 0.15082544 -0.23331505 0.22876006
000130 78 9c 19 be 48 85 ae bd 60 dc cf bd 38 83 7c be
       -0.15001094 -0.08521515 -0.10149455 -0.24659431
000140 58 12 b3 3d e8 b8 0d be 20 59 7d 3e b8 43 ff 3d
       0.08743733 -0.13840067 0.2474103 0.12464088
000150 d0 3d e3 bd f4 c7 07 be 00 51 06 bd c0 4b 38 be
       -0.11095774 -0.1325987 -0.03279209 -0.17997646
000160 48 a9 a3 3d 04 af 05 3e 70 b9 0c be 9c 92 08 3e
       0.07991272 0.13055044 -0.13742614 0.13337177
000170 38 45 7f 3e a8 b6 36 3e 98 31 e8 bd f0 cf a0 3d
       0.24928749 0.17843115 -0.11337584 0.07852161
000180 e0 ae 29 be e0 87 bc bc 24 69 10 be 88 15 60 3e
       -0.16570616 -0.023014009 -0.14102608 0.21883214
000190 d8 00 eb bd 38 2a 98 bd 6c 81 00 3e 64 5d 7a be
       -0.1147477 -0.074299276 0.1254937 -0.24449688
0001a0 00 b5 1d 3b f4 5e 7f be e0 e3 d0 bd dc 8e 06 3e
       0.0024064183 -0.24938565 -0.10199714 0.13140434
0001b0 38 3e 0a 3e d4 7b 49 3e 30 8f 4a be 38 b9 48 be
       0.13500297 0.19676143 -0.19781184 -0.19601905
0001c0 f0 9f 6f bd 14 5b 17 3e 4c de 0d be 68 dc b4 3d
       -0.058502138 0.14780837 -0.13854331 0.08831102
0001d0 6c b3 50 3e 9c 83 1e be e0 8d eb 3c 70 09 01 3d
       0.20380944 -0.15479892 0.028754175 0.03150314
0001e0 70 99 19 3d 54 87 2a 3e 48 1f bb 3d a0 2c c0 bc
       0.037499845 0.16653186 0.09136826 -0.023458779
0001f0 c0 0c 59 be 20 fe 99 bc c0 a1 5b 3c c4 2a 64 3e
       -0.2119627 -0.018797934 0.013405263 0.22281939
000200 17 5b 59 3e 74 b8 79 3e 58 eb 77 be 08 10 9b 3d
       0.21226154 0.2438677 -0.2421087 0.07571417
000210 87 3d 87 bc 14 8b 0d 3e 4f bc b4 3d 59 3d d6 3d
       -0.01650883 0.13822585 0.088249795 0.1046092
000220 2c 91 0e be 15 9e 5d be 3d fe e0 3d a0 5b d8 3d
       -0.13922566 -0.21642335 0.10985992 0.10564351
000230 96 51 12 be a8 ea 8e 3d 30 5b c1 bd 6b 40 41 be
       -0.14288935 0.06978351 -0.09441221 -0.1887223
000240 80 0e 7c be 5b 2a a3 bd 48 91 5c be bd 9b 61 3d
       -0.24614906 -0.07967063 -0.21539795 0.055080164
000250 eb 8b 57 be 5a 2f c4 3d 14 dd 11 be 90 e9 62 bd
       -0.21049468 0.09579344 -0.14244491 -0.055398524
000260 e7 4d e6 bd 40 19 e1 bc 40 91 de 3d 78 ba be bd
       -0.112453274 -0.02747786 0.10867548 -0.0931291
000270 08 65 db 3d e0 2d 24 3d 1c a1 5d 3e 85 49 1d be
       0.107126296 0.040082812 0.2164349 -0.15360077
000280 df 1a 11 be e6 99 10 3e 18 57 72 3e e0 b5 db 3c
       -0.14170407 0.14121208 0.23666036 0.026820123
000290 70 7c 3b 3e c7 09 f8 bb a8 15 c1 bd 04 e2 06 be
       0.18309188 -0.007569525 -0.09427959 -0.13172156
0002a0 a0 a2 58 bd 06 b6 12 3e c8 bd 45 be 98 a6 ae bd
       -0.052889466 0.14327249 -0.19310677 -0.08527869
0002b0 e8 7e 2e be c9 dd 05 3e 3a 4d c0 3d 30 3f 7f bd
       -0.17040598 0.13072886 0.0938973 -0.06231612
0002c0 fa 12 57 3e 20 cd fd 3d 63 d2 f2 bd 5c c1 3e 3e
       0.21003333 0.1239264 -0.11856534 0.18628448
0002d0 a8 49 47 3e fc 7a 7c 3e 22 4b a1 bd fe ed 5f 3e
       0.19461691 0.2465629 -0.078756586 0.2186813
0002e0 ce 8b 7d be 40 f2 59 3c 57 27 63 be 00 8e e1 3c
       -0.24760363 0.013302386 -0.22182976 0.027533531
0002f0 70 9e 75 bd 48 6c 2f 3e 64 b7 22 3e d0 cb 69 be
       -0.05996555 0.1713115 0.1589027 -0.22831655
000300 1e c1 2d 3e f8 78 ab bd 60 73 88 bc 08 c4 06 be
       0.169682 -0.08372682 -0.016656578 -0.13160717
000310 9e dd eb 3d f6 27 a8 bd 01 3b 06 3e aa cf 41 3e
       0.115168795 -0.08210747 0.13108446 0.18926874
000320 c8 c1 27 3e fd af 8c be c2 f7 22 3e 64 fe 43 bd
       0.16382515 -0.27478018 0.15914825 -0.047850028
000330 49 a5 2d be 0c 59 33 be 30 bf 21 be 92 03 90 be
       -0.16957583 -0.17514437 -0.15795588 -0.28127724
000340 c9 e0 8c bd a8 2d db bd 41 12 24 be 9d ad 45 3e
       -0.06878812 -0.107020676 -0.16022588 0.1930451
000350 f0 79 2c be 35 c4 35 3e 5c 69 72 be b0 5e 95 3d
       -0.1684339 0.17750628 -0.23673004 0.07293451
000360 3e 09 cb bd 8c 3a 32 be 40 b7 af bd 78 06 a8 bd
       -0.09913872 -0.17405146 -0.08579874 -0.08204359
000370 e0 04 1f bd 78 92 b4 bd 10 85 73 bd d6 5b ec bd
       -0.03882301 -0.08816999 -0.05945307 -0.11540954
000380 b5 e5 b4 bd b6 86 5e be 98 f0 4c be c8 f7 12 be
       -0.08832876 -0.21731076 -0.20013654 -0.14352334
000390 bc 9a 79 3e 63 1d 39 3e 28 af 5f 3e e0 dd 46 3e
       0.24375433 0.18077616 0.2184416 0.19420576
0003a0 b8 70 0c 3e 7e 0f f7 3d 80 2f 5a 3c 74 0e 1a be
       0.13714874 0.12063502 0.013316989 -0.15044576
0003b0 d8 b6 ff bd 2e ad ec 3b 11 93 0f be 6c ce 1b be
       -0.124860466 0.007222793 -0.14020945 -0.15215462
0003c0 4b ed 3e be 08 30 5f 3e 06 01 1e 3e 40 4e 3a bd
       -0.18645208 0.21795666 0.15430078 -0.04548478
0003d0 94 40 3a be c4 12 78 3e 4d ca 35 3e 6b dc a5 bd
       -0.18188697 0.24225909 0.17752953 -0.08098682
0003e0 32 94 8e be e0 8c 20 bd 66 19 2b 3a f8 e5 a8 3d
       -0.2784744 -0.03919685 0.0006526917 0.08246988
0003f0 ce 21 13 3e 80 11 c2 3c 00 65 8d bb e8 aa 0b be
       0.14368364 0.023689985 -0.0043150187 -0.13639414

sequential/dense_2/MatMul f4 [1, 32]
000000 6a a8 a8 be d8 72 42 3e 1f 28 cf be e2 80 6c be
       -0.3294099 0.18989122 -0.40460297 -0.2309604
000010 8a 06 07 be d1 d2 07 bd 1d 8b 03 be 6f 5b 7a be
       -0.13186088 -0.033160035 -0.12846036 -0.24448942
000020 f8 04 d0 be d0 37 d8 bc f3 c7 6e be 97 17 91 be
       -0.4062879 -0.026393801 -0.23318462 -0.2833831
000030 fe 75 c0 3e cf 04 1a 3f 1f 26 21 be ca 37 84 3e
       0.3759002 0.6016359 -0.15737198 0.25823814
000040 1c 38 99 be 38 8c 1a be a8 4a 9e be 00 58 b0 be
       -0.2992562 -0.15092552 -0.30916333 -0.3444214
000050 49 5e 71 be 5c cd a2 be 8e fb 95 be 24 0e 43 be
       -0.23571123 -0.31797302 -0.29293483 -0.19048363
000060 75 10 a1 be 30 f9 f1 3d b4 d0 62 3e d6 fd 29 be
       -0.31457868 0.11815107 0.22149926 -0.16600737
000070 d2 c1 b5 3e a3 c8 67 be 78 3e e4 3d 32 4b 9b 3e
       0.35499436 -0.2263513 0.111447275 0.30330807
